mnist_net.pth (torch, 183623 bytes, 10 tensors)

conv1.weight f4 [8, 1, 5, 5]
0.2812153 0.3025793 0.030036625 0.17676845 -0.010047955 0.11650245 0.10406697 -0.11162977
-0.104118824 -0.15683635 0.08334939 -0.24928762 -0.12297137 -0.24240117 -0.19850807 -0.06963972
-0.08468233 -0.28459707 0.002453286 -0.05836304 -0.13354324 -0.15432008 0.078905314 0.041398533
0.14273205 0.00053874904 -0.18304273 0.0075485897 0.02637818 0.094311655 -0.11157759 -0.14233162
-0.2771361 -0.11073012 -0.031724326 0.15479784 0.02118298 -0.085737966 -0.24321462 -0.21985127
-0.023127867 0.17953178 -0.09362637 0.07713801 -0.1901292 0.117036745 0.12380687 0.19961716
0.06154759 0.033312295 -0.3307578 -0.15040734 -0.15009099 0.14040956 0.41399342 -0.12019365
-0.12604953 0.15178949 0.47359827 0.17728843 -0.21652706 0.17598826 0.4128713 0.1905206
-0.034608774 -0.029033812 0.010817789 0.2898783 0.15078528 -0.023586372 -0.12359535 0.24967225
0.23472477 -0.023911197 -0.105544195 -0.06994224 0.06750732 0.024371732 0.23325253 0.033537786
-0.06427534 -0.15127507 -0.016857212 0.11826156 0.057405394 -0.11607846 -0.16520518 -0.044282816
0.3235395 0.26747176 -0.30101916 -0.13605045 -0.016679661 0.250581 0.2218832 -0.06387722
-0.2648229 -0.37552586 0.25416717 0.25587797 0.12328359 -0.51257366 -0.22036445 -0.3019226
-0.022285854 0.40731218 0.41873673 0.13942565 0.08005694 0.10261911 0.23541607 0.6293867
0.42943692 0.2220537 -0.0012277488 -0.35436317 -0.003934223 0.0061547295 0.18788257 -0.03485241
-0.38685575 -0.3272708 -0.158549 0.034832954 0.19839296 0.22500414 0.1795088 0.10320771
0.04066047 -0.00400754 0.080700696 0.25290692 0.25474137 0.2678992 0.16116558 0.028518805
-0.123178154 0.09214657 0.09050212 0.26839897 -0.26209098 -0.1887665 -0.09570774 -0.13358751
-0.19085516 -0.25513956 -0.29676875 -0.4144494 -0.3280414 -0.16634704 -0.19403161 -0.22843571
0.12193085 0.24705143 0.26654574 -0.12301995 0.5009988 0.43642735 0.21815965 0.16934446
0.08141474 0.21331269 -0.16926214 -0.07333585 -0.040771738 -0.04711322 -0.13131087 -0.37821528
-0.2613482 -0.32200873 0.15919107 -0.16745901 -0.24026114 0.049934298 0.055783685 0.11451376
-0.06633592 -0.30794087 0.096582964 -0.19589598 -0.1673091 -0.3314294 -0.36558872 0.30209178
0.25771096 -0.1701599 -0.020248577 0.2820641 0.29417583 0.0014384041 0.34248874 0.22157624
-0.02710245 -0.23265196 0.3633125 0.086046144 -0.07864477 -0.3713093 -0.26593742 0.41072604
00000000: 74fb 8f3e adeb 9a3e 5e0f f63c ca02 353e
00000010: 2ea0 24bc d698 ee3d 1021 d53d 269e e4bd
00000020: 403c d5bd b599 20be 16b3 aa3d 4145 7fbe
00000030: 6ad8 fbbd 0338 78be b345 4bbe 459f 8ebd
00000040: ee6d adbd b5b6 91be 4fc7 203b 150e 6fbd
00000050: 8fbf 08be 1506 1ebe 1c99 a13d 8291 293d
00000060: 5a28 123e d63a 0d3a 8e6f 3bbe 295a f73b
00000070: 0e17 d83c 7826 c13d cb82 e4bd 61bf 11be
00000080: c8e4 8dbe 79c6 e2bd 5ef1 01bd 5383 1e3e
00000090: ee87 ad3c 6397 afbd 410d 79be b120 61be
000000a0: a776 bdbc 2ed7 373e 2fbf bfbd 88fa 9d3d
000000b0: 3bb1 42be f6b0 ef3d 758e fd3d 7168 4c3e
000000c0: 5319 7c3d 7972 083d 1659 a9be 6204 1abe
000000d0: 74b1 19be 86c7 0f3e f2f6 d33e 1728 f6bd
000000e0: 2113 01be b46e 1b3e 797b f23e 198b 353e
000000f0: 45b9 5dbe 4436 343e de63 d33e d517 433e
00000100: eec1 0dbd 51d8 edbc 183d 313c ee6a 943e
00000110: 7567 1a3e 3538 c1bc 8f1f fdbd 15aa 7f3e
00000120: b15b 703e 6ae1 c3bc 8e27 d8bd e13d 8fbd
00000130: 4741 8a3d 3aa7 c73c c0d9 6e3e eb5e 093d
00000140: caa2 83bd dae7 1abe 2318 8abc 1e33 f23d
00000150: eb21 6b3d 8bba edbd 8c2b 29be e661 35bd
00000160: f8a6 a53e 0ff2 883e 2f1f 9abe cf50 0bbe
00000170: c9a3 88bc 274c 803e 5935 633e 0fd2 82bd
00000180: de96 87be ed44 c0be 3322 823e 7002 833e
00000190: 1b7c fc3d 0738 03bf 38a7 61be 9995 9abe
000001a0: d390 b6bc 398b d03e a964 d63e 99c5 0e3e
000001b0: e5f4 a33d f829 d23d e910 713e 7d1f 213f
000001c0: 28df db3e 0c62 633e 6aec a0ba 176f b5be
000001d0: a8ea 80bb 9dad c93b 4a64 403e 67c1 0ebd
000001e0: f511 c6be 0a90 a7be ab5a 22be 00ad 0e3d
000001f0: 8627 4b3e 7c67 663e 28d1 373e 905e d33d
00000200: 988b 263d af51 83bb 6846 a53d 047d 813e
00000210: 766d 823e 152a 893e 9708 253e 45a0 e93c
00000220: d444 fcbd 57b7 bc3d 2d59 b93d 976b 893e
00000230: ca30 86be 014c 41be 6b02 c4bd 2acb 08be
00000240: 896f 43be a7a1 82be 13f2 97be b632 d4be
00000250: 0bf5 a7be e156 2abe 39b0 46be 0deb 69be
00000260: e2b6 f93d 0dfb 7c3e af78 883e e2f1 fbbd
00000270: 7541 003f 6873 df3e 3e65 5f3e a268 2d3e
00000280: c5bc a63d a46e 5a3e 0e53 2dbe 1b31 96bd
00000290: 4400 27bd cbf9 40bd 5b76 06be 6fa5 c1be
000002a0: 6ecf 85be 54de a4be fc02 233e 607a 2bbe
000002b0: 0407 76be e887 4c3d 6f7d 643d 3186 ea3d
000002c0: 20db 87bd 6daa 9dbe 4acd c53d f598 48be
000002d0: 1453 2bbe 1db1 a9be 722e bbbe c6ab 9a3e
000002e0: b1f2 833e 663e 2ebe 58e0 a5bc b56a 903e
000002f0: 379e 963e d588 bc3a af5a af3e e2e4 623e
00000300: f505 debc 513c 6ebe 1904 ba3e f638 b03d
00000310: 8210 a1bd 411c bebe f328 88be af4a d23e

conv1.bias f4 [8]
-0.19554883 -0.44651228 0.27198595 0.16427532 0.13559249 -0.102026835 -0.022005199 0.044444624
00000000: f43d 48be 429d e4be be41 8b3e ca37 283e
00000010: c2d8 0a3e 72f3 d0bd 3f44 b4bc 910b 363d

conv2.weight f4 [16, 8, 5, 5]
-0.034166504 -0.0053126095 -0.011316783 0.078195415 0.017686496 -0.070144504 -0.061994027 -0.008059736
-0.05632877 0.091010764 -0.10038051 -0.07737902 -0.19206423 -0.18736328 -0.05975031 -0.11847035
-0.16165584 -0.21442111 -0.046369303 0.034341723 0.027008258 -0.21746282 -0.178799 0.11256517
0.12313686 0.14213671 0.15234652 0.062750414 0.12869494 0.03308115 -0.02957573 0.009226871
0.09271703 0.22877061 0.115970686 -0.19895504 -0.1251212 -0.11195102 0.031066468 0.0332738
-0.0002899337 -0.02143041 -0.16124889 -0.120967306 -0.0064982893 -0.05154399 -0.07657806 -0.17966928
-0.12098748 -0.020256069 -0.15166654 -0.10552824 -0.035828713 -0.039313167 -0.10653849 0.06060283
-0.024303988 -0.04635555 -0.12946047 -0.078557014 -0.053772278 0.07218485 -0.032244947 -0.046520907
-0.08873715 -0.087315336 -0.08509719 -0.11582517 0.041816022 0.029508859 -0.06941527 -0.15802468
-0.011079518 -0.088147245 -0.21612129 -0.09073689 -0.071794696 -0.063169345 0.054556265 0.14727378
0.11495194 0.012077168 0.010592595 0.08036731 0.0082805 0.10349033 -0.100424655 0.008413098
0.042421717 0.086048774 0.12217 -0.026357632 -0.12765028 -0.22664557 -0.07818867 0.0633917
-0.017819801 -0.2146743 -0.34343776 -0.27003363 -0.06350984 -0.041071296 0.102621645 0.029134165
-0.008305512 0.049277794 -0.19296992 0.06129905 0.13069724 -0.03144263 0.10878926 0.0019283633
0.137323 0.20395161 -0.059926137 -0.033104863 0.07224566 0.066777855 -0.14059706 -0.17895496
0.040795572 0.18193302 0.34995818 0.22860532 0.06518963 -0.09780277 -0.018277477 -0.040520612
0.064605996 -0.040048722 -0.1624776 -0.13135277 -0.015741296 0.11475628 0.026858475 -0.1915296
-0.2768771 -0.07608418 -0.1250965 -0.21341376 0.036047608 -0.16609885 -0.10233319 -0.19413823
-0.08343822 0.012634537 0.11686497 0.20858464 0.15630981 0.17376377 -0.11218149 -0.0395739
0.015823279 0.09795307 0.11759849 -0.038915858 0.045497067 0.14761156 0.03694496 -0.04280089
-0.0981289 0.080907084 0.07474319 -0.16650723 -0.25428635 -0.024546562 -0.2233453 -0.08642768
-0.008845688 0.08534048 -0.10768859 0.06221007 0.22667305 0.29442918 0.14777851 -0.02567811
0.015200344 0.027393222 -0.008835018 0.03369741 0.047296785 0.06818171 0.1473461 0.23787552
-0.056654602 0.1901098 0.13316992 0.2726192 0.048347227 -0.097142585 0.1842748 -0.020730188
-0.035549574 0.10308297 0.027203977 0.040973894 -0.024849014 0.24257654 0.066652685 -0.112723336
-0.0039154068 0.0025446154 -0.084680535 -0.14858358 -0.14328693 0.025260262 -0.004877278 -0.059767094
-0.1918899 -0.09224327 0.10706489 0.12176446 -0.1472576 -0.1650133 -0.046443243 0.13859384
-0.012240674 -0.051903438 -0.026633503 0.015203041 0.021115951 0.00049588294 0.022017395 -0.086798444
-0.028686013 0.1396314 -0.049924858 -0.026847327 -0.01941375 0.035185274 0.16677196 0.06588395
-0.11790874 -0.19955446 -0.0005126933 0.06486253 -0.01731872 -0.17370583 -0.07217497 -0.12856515
0.13990103 -0.06956431 -0.10374556 -0.010346897 -0.015249161 0.0641015 0.08049646 0.07163535
-0.01111048 -0.086348265 -0.029765362 0.1929333 0.11302791 -0.05078725 0.016596632 -0.092574485
00000000: 2df2 0bbd 6615 aebb 076a 39bc eb24 a03d
00000010: 45e3 903c eca7 8fbd 73ed 7dbd fc0c 04bc
00000020: ffb8 66bd da63 ba3d 4c94 cdbd e478 9ebd
00000030: 7cac 44be 29dc 3fbe bebc 74bd 95a0 f2bd
00000040: 1c89 25be 3591 5bbe bded 3dbd e8a9 0c3d
00000050: 6c40 dd3c 93ae 5ebe 1617 37be 9188 e63d
00000060: 2e2f fc3d 498c 113e ba00 1c3e 4a83 803d
00000070: 9bc8 033e 1a80 073d cd48 f2bc 4d2c 173c
00000080: 6de2 bd3d d842 6a3e 0a82 ed3d dfba 4bbe
00000090: c61f 00be 9446 e5bd 1b7f fe3c 1c4a 083d
000000a0: 3e02 98b9 d48e afbc 6e1e 25be b5bd f7bd
000000b0: 9aef d4bb ca1f 53bd f5d4 9cbd 39fb 37be
000000c0: 49c8 f7bd 0ef0 a5bc 794e 1bbe 311f d8bd
000000d0: 21c1 12bd d806 21bd da30 dabd ac3a 783d
000000e0: 2819 c7bc 51df 3dbd 4991 04be 80e2 a0bd
000000f0: 5240 5cbd a7d5 933d 4713 04bd b58c 3ebd
00000100: d3bb b5bd 62d2 b2bd 7047 aebd bf35 edbd
00000110: 4747 2b3d 90bc f13c 9829 8ebd 39d1 21be
00000120: de86 35bc 8b86 b4bd e64e 5dbe 43d4 b9bd
00000130: 1909 93bd ee5e 81bd 6476 5f3d f0ce 163e
00000140: ec6b eb3d 50df 453c 908c 2d3c 9e97 a43d
00000150: efaa 073c bdf2 d33d 71ab cdbd 17d7 093c
00000160: 65c2 2d3d 573a b03d 4434 fa3d f6eb d7bc
00000170: c1b6 02be c715 68be 6221 a0bd 82d3 813d
00000180: d5fa 91bc 94d3 5bbe 13d7 afbe d941 8abe
00000190: 7211 82bd 603a 28bd 4c2b d23d c6aa ee3c
000001a0: d813 08bc 83d7 493d e899 45be b614 7b3d
000001b0: 7fd5 053e fdc9 00bd e7cc de3d 23c1 fc3a
000001c0: 679e 0c3e b1d8 503e 1c75 75bd f798 07bd
000001d0: 88f5 933d d4c2 883d adf8 0fbe f83f 37be
000001e0: 4219 273d a64c 3a3e b82d b33e 8317 6a3e
000001f0: 2482 853d d24c c8bd a6ba 95bc f1f8 25bd
00000200: 2650 843d 210a 24bd 8760 26be 5781 06be
00000210: e4f3 80bc 5705 eb3d 4e06 dc3c 5620 44be
00000220: d6c2 8dbe 06d2 9bbd 4c19 00be 2389 5abe
00000230: a8a6 133d d115 2abe 1094 d1bd 2ccc 46be
00000240: a8e1 aabd 1701 4f3c e756 ef3d 3697 553e
00000250: ae0f 203e 21ef 313e 69bf e5bd 3e18 22bd
00000260: d29f 813c 9f9b c83d 7ad7 f03d 3c66 1fbd
00000270: 225b 3a3d 7c27 173e 9953 173d fc4f 2fbd
00000280: cef7 c8bd 9db2 a53d f512 993d df80 2abe
00000290: d231 82be df15 c9bc a1b4 64be ff00 b1bd
000002a0: 81ed 10bc fdc6 ae3d d68b dcbd fdcf 7e3d
000002b0: fb1c 683e 6cbf 963e 4053 173e e65a d2bc
000002c0: dd0a 793c c067 e03c c0c0 10bc 4c06 0a3d
000002d0: 46ba 413d daa2 8b3d e5e1 163e a495 733e
000002e0: a80e 68bd 25ac 423e b25d 083e be94 8b3e
000002f0: be07 463d b1f2 c6bd 88b2 3c3e 5bd2 a9bc
00000300: 6e9c 11bd 2a1d d33d e0da de3c 3ed4 273d
00000310: 2990 cbbc fc65 783e 3481 883d 7edb e6bd
00000320: d04c 80bb 90c3 263b fd6c adbd 4b26 18be
00000330: cfb9 12be 9cee ce3c 93d1 9fbb 57ce 74bd
00000340: c97e 44be 0aea bcbd d644 db3d a55f f93d
00000350: b2ca 16be 3ff9 28be 453b 3ebd 8beb 0d3e
00000360: 1c8d 48bc b398 54bd 812e dabc 2d16 793c
00000370: 5cfb ac3c 24fe 013a d35d b43c 62c3 b1bd
00000380: eefe eabc 89fb 0e3e 027e 4cbd edee dbbc
00000390: 9609 9fbc 6f1e 103d 45c6 2a3e 2aee 863d
000003a0: 237a f1bd 0158 4cbe 4466 06ba a5d6 843d
000003b0: fddf 8dbc f1df 31be 78d0 93bd 95a6 03be
000003c0: 3742 0f3e bc77 8ebd 8d78 d4bd 0886 29bc
000003d0: 9ed7 79bc a647 833d 54db a43d 8eb5 923d
000003e0: bb08 36bc 5cd7 b0bd 7dd6 f3bc 4f90 453e
000003f0: 2d7b e73d 4b06 50bd a9f5 873c b197 bdbd

conv2.bias f4 [16]
0.043330036 0.052095782 0.039645094 -0.017861206 0.07087562 -0.00095691875 -0.08602163 -0.064840965
-0.041281115 0.03666803 0.026641062 0.06243933 0.04044867 0.019603638 0.022285376 -0.07747818
00000000: d67a 313d 6362 553d e562 223d aa51 92bc
00000010: 3d27 913d bbd9 7aba 1c2c b0bd 57cb 84bd
00000020: 6316 29bd 3731 163d 5b3e da3c 62c0 7f3d
00000030: 81ad 253d cf97 a03c d28f b63c e1ac 9ebd

fc1.weight f4 [128, 256]
-0.18268512 -0.056693118 0.09416899 0.022952357 -0.06598513 0.10957765 -0.03457697 0.06810246
0.040081624 0.13037585 -0.07736888 -0.10234851 0.033945948 -0.01022403 -0.08875928 -0.013732088
-0.01912497 -0.10624259 -0.08875124 -0.1083594 0.01380398 -0.012391886 -0.045681484 0.09678707
-0.047190372 -0.051667623 -0.014563412 0.08190997 0.0683658 0.053051855 0.07725209 0.11219602
-0.04286312 0.038445212 0.08741441 -0.09628834 -0.107068606 -0.029971702 0.008530399 -0.08595823
-0.06940749 0.006917732 0.03661076 0.05896378 -0.03842336 0.013759406 -0.09701727 0.10491194
-0.26467282 0.091828324 0.23189384 0.29412416 -0.4660511 0.01132141 0.15318511 0.014270254
-0.34252945 0.06010581 0.040095493 -0.25762653 -0.14300339 -0.07517052 0.000993581 -0.012482212
-0.10105951 0.15233552 0.2586458 0.08495324 -0.06819896 0.071146 -0.006362131 -0.25158814
-0.07188642 0.10465079 -0.06308734 -0.11978736 -0.022776928 -0.01816258 -0.0036326263 0.04783922
-0.16255113 -0.117205516 -0.12986481 -0.2400291 -0.07271229 0.009422291 -0.004864162 -0.05073527
-0.081683904 -0.09491618 0.09695118 0.053946253 0.113437265 0.23100883 0.11030703 0.023779975
-0.043187797 -0.09683053 -0.12409882 0.047655996 -0.143107 0.014809356 0.046566613 -0.03841036
-0.022069884 -0.100017406 0.006892361 0.053937174 0.19104742 0.094844565 0.09604535 0.04374234
0.116405934 0.09200482 0.10168359 0.012184223 0.040092837 0.010047754 -0.11983883 0.0014398587
0.107094556 0.16433635 -0.103392094 -0.049534965 -0.028180031 0.119427115 -0.0007767761 -0.005117713
0.22157943 -0.0060393247 -0.015430866 -0.19645736 0.12653756 0.036527473 -0.027342167 -0.06467293
-0.018714515 0.0040546893 0.07166267 0.08789786 0.030895391 0.1105444 -0.04562231 -0.05864631
0.09408559 -0.02691049 -0.14591385 0.023534885 0.17195757 -0.12604497 -0.009105738 -0.0671056
-0.030289257 -0.05517133 0.05436835 -0.09007234 0.080849305 0.12698056 0.019467631 0.023323555
0.25771067 0.01417227 -0.09952037 -0.3346626 0.11156764 0.03834443 -0.026084863 -0.10310392
-0.009194743 0.038428918 -0.007835699 0.1540158 0.12288276 -0.006629222 0.0068431473 -0.016578535
-0.08517793 -0.06384508 0.039960243 0.08681528 -0.12794535 -0.12610759 0.024869958 0.08853078
-0.12829225 0.07755967 0.062452935 0.019434897 0.080680944 -0.038427375 -0.07524969 -0.065124266
0.07881053 0.039775312 -0.17456439 -0.23650505 0.1705531 0.054936197 0.023486154 -0.05250229
0.17284155 -0.07658816 -0.04675969 0.07927126 -0.016742632 0.09060945 -0.0022241604 -0.088893704
0.04831567 -0.061118696 -0.25005463 0.10882077 0.07909186 0.122701295 0.055861805 0.079958454
0.038549032 -0.03957568 0.06721382 0.048253804 -0.040216662 0.078728355 -0.021259118 -0.042099778
0.17129761 0.12938637 -0.011906102 -0.1981474 -0.090362795 -0.074779466 0.14164694 -0.0101991985
-0.022968898 0.23766732 0.17403801 -0.0049963235 0.1318916 0.0050467937 0.018487038 0.05123589
0.050977293 0.14308317 0.075094186 -0.21160322 0.0048706965 0.03523356 0.036212776 -0.011114433
0.03170951 0.017322708 -0.015798353 0.12738211 -0.0003183325 -0.01916684 -0.018541377 0.0014801641
00000000: cf11 3bbe 0b37 68bd acdb c03d 9506 bc3c
00000010: 3623 87bd 3f6a e03d 95a0 0dbd 4d79 8b3d
00000020: a12c 243d 3f81 053e 9373 9ebd 189c d1bd
00000030: e80a 0b3d b182 27bc 6dc7 b5bd 8dfc 60bc
00000040: f8ab 9cbc b795 d9bd 36c3 b5bd 88eb ddbd
00000050: 172a 623c 5607 4bbc 821c 3bbd 4d38 c63d
00000060: b14a 41bd 6ea1 53bd 619b 6ebc 6ac0 a73d
00000070: 5e03 8c3d e74c 593d 5836 9e3d 07c7 e53d
00000080: 3d91 2fbd ba78 1d3d 5406 b33d d232 c5bd
00000090: c946 dbbd 3787 f5bc 16c3 0b3c de0a b0bd
000000a0: 8425 8ebd 24ae e23b 2af5 153d 0184 713d
000000b0: d061 1dbd 226f 613c feb0 c6bd 12dc d63d
000000c0: 3283 87be 7d10 bc3d 9475 6d3e 7197 963e
000000d0: 409e eebe 6f7d 393c 8fdc 1c3e c9cd 693c
000000e0: 0560 afbe 8331 763d 2c3b 243d a0e7 83be
000000f0: 7b6f 12be 00f3 99bd 0c3b 823a 3182 4cbc
00000100: 4af8 cebd d8fd 1b3e 396d 843e f7fb ad3d
00000110: e5ab 8bbd feb4 913d 6c79 d0bb 29d0 80be
00000120: 3039 93bd 2753 d63d ef33 81bd 1353 f5bd
00000130: ae96 babc b1c9 94bc 5b11 6ebb 0ff3 433d
00000140: ce73 26be 7209 f0bd 48fb 04be 30ca 75be
00000150: 2eea 94bd f45f 1a3c 8c63 9fbb c9cf 4fbd
00000160: e449 a7bd 6a63 c2bd 578e c63d bff6 5c3d
00000170: cc51 e83d 948d 6c3e a7e8 e13d 39ce c23c
00000180: b0e5 30bd 164f c6bd 8627 febd ef32 433d
00000190: a48a 12be f1a2 723c a2bc 3e3d 2f54 1dbd
000001a0: e7cb b4bc edd5 ccbd 51d9 e13b 3aed 5c3d
000001b0: efa1 433e de3d c23d 6db3 c43d 2b2b 333d
000001c0: 3c66 ee3d 066d bc3d 7c3f d03d 56a0 473c
000001d0: 6338 243d 569f 243c 0f6e f5bd a4b9 bc3a
000001e0: 6454 db3d ca47 283e 3cbf d3bd 2de5 4abd
000001f0: cfd9 e6bc 3496 f43d 90a0 4bba 7db2 a7bb
00000200: b8e5 623e 87e5 c5bb bed1 7cbc 1e2c 49be
00000210: 1093 013e d59d 153d aefc dfbc 3e73 84bd
00000220: 2f4f 99bc 33dd 843b e1c3 923d cb03 b43d
00000230: 5518 fd3c 1a65 e23d 76de 3abd 1d37 70bd
00000240: f2af c03d 6373 dcbc 716a 15be 3bcc c03c
00000250: a515 303e ef11 01be 3c30 15bc a96e 89bd
00000260: 2d21 f8bc 55fb 61bd 59b1 5e3d d977 b8bd
00000270: 5294 a53d 3107 023e 957a 9f3c 0a11 bf3c
00000280: a7f2 833e cf32 683c 56d1 cbbd e558 abbe
00000290: 937d e43d 0d0f 1d3d ecaf d5bc 2628 d3bd
000002a0: 8ca5 16bc a467 1d3d 4e61 00bc 51b6 1d3e
000002b0: f5a9 fb3d f239 d9bb 7b3c e03b b5cf 87bc
000002c0: c471 aebd 36c1 82bd 5aad 233d 36cc b13d
000002d0: 1b04 03be 5922 01be 15bc cb3c a04f b53d
000002e0: 0b5f 03be 9bd7 9e3d a6ce 7f3d ef35 9f3c
000002f0: 0d3c a53d 0666 1dbd 821c 9abd df5f 85bd
00000300: 6a67 a13d 70eb 223d 02c1 32be 612e 72be
00000310: 79a5 2e3e c704 613d 0966 c03c a40c 57bd
00000320: 60fd 303e 41da 9cbd 1787 3fbd f858 a23d
00000330: d827 89bc 7391 b93d 38c3 11bb e70d b6bd
00000340: a7e6 453d 9957 7abd 2907 80be 6ddd de3d
00000350: eafa a13d d14a fb3d 59cf 643d 42c1 a33d
00000360: 97e5 1d3d 1c1a 22bd 66a7 893d c8a5 453d
00000370: 3aba 24bd 553c a13d 9a27 aebc d170 2cbd
00000380: a468 2f3e dc7d 043e d011 43bc 27e7 4abe
00000390: 2110 b9bd fa25 99bd e50b 113e 8a1a 27bc
000003a0: 4529 bcbc 105f 733e 0537 323e 33b8 a3bb
000003b0: 970e 073e 935f a53b 2172 973c b9dc 513d
000003c0: 91cd 503d 6584 123e fbca 993d 84ae 58be
000003d0: 5d9a 9f3b 1151 103d d953 143d 5019 36bc
000003e0: d5e1 013d 5ae8 8d3c 8c6b 81bc 7570 023e
000003f0: dde5 a6b9 c703 9dbc 16e4 97bc 1102 c23a

fc1.bias f4 [128]
0.043137547 0.022237444 -0.075610004 -0.045637652 -0.08791593 0.009254663 -0.04646464 -0.055432778
0.030140053 0.13558093 0.0219484 -0.06635242 -0.059768297 0.021977305 0.09520619 -0.0029944691
0.033865273 0.0316513 -0.05192781 0.03309165 -0.064641915 0.035280865 -0.059416164 0.023590794
-0.09641109 0.0019955162 -0.07212098 -0.037299078 -0.054182608 -0.012081458 0.012547835 -0.03811051
0.033911366 -0.005111859 -0.042718537 0.026357643 -0.094530225 0.0716326 -0.05098456 -0.008059414
-0.09661697 -0.009666082 -0.037829638 -0.0016973725 0.017514445 -0.057563085 -0.036158733 0.07487958
-0.0067391777 -0.070301175 0.10274592 0.08182568 0.02986151 0.02427713 -0.100582466 -0.053791177
0.039039355 0.02599587 -0.04931112 -0.01060462 0.022777045 0.06093545 -0.02211538 -0.04292762
-0.009255653 0.005415043 0.033294052 -0.09385106 0.030122839 -0.11830255 -0.051050007 -0.042353638
0.004880146 -0.04483104 -0.026642593 0.080779746 -0.060002044 -0.06665541 -0.057513572 0.030512754
0.051157378 0.04437918 0.01683185 -0.073731914 0.029644636 -0.065011725 -0.05299734 0.07003438
0.05325577 0.07040715 0.06486614 -0.047306314 0.053835023 0.038126305 -0.08880409 -0.0050980183
0.06593152 0.014895745 0.022556616 0.012707305 -0.11808063 0.096323796 0.030739864 0.0008683375
-0.06531032 0.0058383383 -0.036919884 0.01601631 0.04481624 0.044650003 -0.049320403 -0.013360427
0.036331803 -0.108343676 0.04417831 0.020089664 -0.004054408 0.078942835 -0.00940115 0.024500452
0.00078404334 -0.021046206 -0.01722772 -0.047064085 -0.07104599 -0.04684403 0.0005579047 -0.065834284
00000000: ffb0 303d 4d2b b63c 6bd9 9abd 8cee 3abd
00000010: 440d b4bd dfa0 173c b551 3ebd 7b0d 63bd
00000020: 46e8 f63c bad5 0a3e 22cd b33c c7e3 87bd
00000030: 9acf 74bd c009 b43c 77fb c23d db3e 44bb
00000040: 50b6 0a3d cba4 013d 41b2 54bd 1c8b 073d
00000050: fb62 84bd ab82 103d 5d5e 73bd 7b41 c13c
00000060: 2d73 c5bd 35c7 023b 2ab4 93bd ebc6 18bd
00000070: 95ee 5dbd 4ff1 45bc 6f95 4d3c c419 1cbd
00000080: a5e6 0a3d 6281 a7bb a2f9 2ebd fceb d73c
00000090: 1099 c1bd 1db4 923d 30d5 50bd a20b 04bc
000000a0: 1edf c5bd 7d5e 1ebc 40f3 1abd 5f7a deba
000000b0: 747a 8f3c 45c7 6bbd 2e1b 14bd 775a 993d
000000c0: 52d4 dcbb 10fa 8fbd 746c d23d 3994 a73d
000000d0: 20a0 f43c d5e0 c63c 2efe cdbd 2354 5cbd
000000e0: bbe7 1f3d 4af5 d43c 75fa 49bd 00bf 2dbc
000000f0: ed96 ba3c 7397 793d 502b b5bc dfd4 2fbd
00000100: 06a5 17bc ac70 b13b 585f 083d fc34 c0bd
00000110: 2cc4 f63c 9b48 f2bd d019 51bd 027b 2dbd
00000120: a2e9 9f3b c1a0 37bd 9141 dabc da6f a53d
00000130: b4c4 75bd a282 88bd 5a93 6bbd e2f5 f93c
00000140: 668a 513d f1c6 353d f3e2 893c c200 97bd
00000150: 4fd9 f23c de24 85bd bd13 59bd 2f6e 8f3d
00000160: b922 5a3d a031 903d 8ad8 843d 44c4 41bd
00000170: 1d82 5c3d 542a 1c3d ebde b5bd 470d a7bb
00000180: 1b07 873d 480d 743c a7c8 b83c 4d32 503c
00000190: 42d4 f1bd 6945 c53d 2bd2 fb3c 25a1 633a
000001a0: 6bc1 85bd 884f bf3b 4e39 17bd a334 833c
000001b0: 3c91 373d ece2 363d 3104 4abd b1e5 5abc
000001c0: a8d0 143d 4ae3 ddbd 51f4 343d 1493 a43c
000001d0: d7da 84bb c8ac a13d 4807 1abc 2cb5 c83c
000001e0: 4288 4d3a 1869 acbc 2621 8dbc 45c6 40bd
000001f0: 8f80 91bd 87df 3fbd 5a40 123a 20d4 86bd

fc2.weight f4 [64, 128]
0.02556392 0.03044225 0.14508344 0.054937776 -0.06523677 0.08532164 -0.1001256 0.081586346
-0.01683682 0.11976598 -0.04087691 0.2425424 -0.09393485 0.081249975 0.20266771 0.0631703
0.048398964 -0.13705319 -0.041206274 0.07538306 0.07898628 0.009088919 -0.0061707604 0.019847598
-0.08206464 0.01951971 -0.059478037 0.010579481 0.025894118 -0.028019585 0.032362003 -0.010342457
0.1491426 -0.00624487 0.018144336 0.12721658 0.057070225 -0.02552745 -0.06356056 0.042047825
0.05806724 -0.0039429623 -0.02688768 -0.034507442 -0.08239841 0.042220242 -0.0016909704 -0.027454505
-0.07894458 0.12572299 0.05840275 0.15024665 -0.058157567 0.02892602 -0.04426473 0.11005178
0.14187188 -0.0761527 -0.025398042 -0.07643974 -0.1671692 0.14143102 0.004509169 -0.01171235
-0.013332759 0.018271947 -0.15856245 0.14551555 0.09078998 -0.03795675 -0.08704288 -0.037074905
-0.037859272 0.0641523 -0.29947835 0.17982866 -0.04616817 0.005676344 0.019359572 0.017847104
-0.06673266 0.07007107 0.02275208 0.083083674 -0.011855253 0.1261841 0.17664853 0.13797021
-0.048139505 -0.007588014 -0.119531155 -0.049363006 -0.039163753 0.024726568 0.028087232 0.024535902
-0.13137144 0.29787725 0.20277661 0.023532312 0.12516618 0.037959065 -0.0674438 0.108936764
0.047618683 -0.01926049 0.016909126 -0.03609285 0.070497595 0.04378651 0.13072933 0.0070645814
0.09331707 -0.05605407 -0.05154194 -0.22073217 -0.015357328 0.21589412 0.13550304 0.22397493
0.011362647 -0.047270276 -0.010792469 -0.16508582 0.05059311 0.083410576 -0.015885629 -0.13197456
-9.147494e-05 -0.03799206 0.043749172 0.0794242 0.07350788 -0.05418504 0.058763854 0.084879234
-0.06625081 0.04153167 -0.056534193 -0.10779556 0.091578804 -0.13397503 0.124309465 -0.17495915
0.07283504 -0.12886834 0.078268245 -0.07985328 -0.037739526 0.067911394 0.09017976 -0.019696161
0.06136815 -0.09952692 0.059436876 -0.051819503 0.008459333 0.13354185 0.08871913 0.061507437
-0.013212579 0.02861158 0.19262254 0.04196835 -0.004050069 -0.111173466 -0.03759216 0.021019433
0.04641812 0.14832833 -0.07445423 -0.086981066 0.07183444 -0.054247852 0.043089762 -0.18401359
0.13822553 -0.07937544 0.055941086 0.07877965 0.06270254 0.055390276 0.09935244 -0.017106665
0.027561937 0.053445816 0.04125115 0.16464324 0.03330981 0.015061618 -0.08121856 -0.16298577
0.06868664 0.10058142 0.0043900376 -0.04428834 -0.055281825 -0.032052986 0.19148101 0.0018900431
0.0054312386 -0.008711984 0.21233019 -0.016212516 0.14471035 0.09237343 -0.04743256 0.057538446
-0.013320758 0.02533445 0.15206404 -0.068662174 -0.07750224 -0.0014125553 0.123313196 0.041150738
-0.03355384 -0.08498701 0.032116447 0.06983005 -0.026759123 -0.024040436 0.10123516 0.02697001
0.16875106 -0.05557589 0.040982887 -0.05275657 -0.012759005 -0.03276773 -0.008302459 0.22307552
-0.0027138644 -0.06583824 -0.06674398 0.027396627 -0.25107387 -0.07319938 -0.10435888 0.008168798
0.010501465 0.07210152 0.0098005505 0.042284787 -0.06377598 0.24540336 -0.0029849834 0.14009453
0.07537619 0.022793341 -0.0561825 -0.14164558 -0.04647347 0.041128628 0.12822719 -0.0039079958
00000000: 6d6b d13c 0762 f93c c190 143e 6f06 613d
00000010: db9a 85bd 1dbd ae3d a70e cdbd be16 a73d
00000020: 5fed 89bc de47 f53d 8c6e 27bd 095d 783e
00000030: ea60 c0bd 6366 a63d 2088 4f3e 6e5f 813d
00000040: fe3d 463d ac57 0cbe e9c7 28bd 6f62 9a3d
00000050: 8fc3 a13d b0e9 143c 1734 cabb 6e97 a23c
00000060: 8211 a8bd cde7 9f3c 3e9f 73bd 8f55 2d3c
00000070: e71f d43c 5489 e5bc 058e 043d 6973 29bc
00000080: d6b8 183e c4a1 ccbb 6ea3 943c 1045 023e
00000090: 78c2 693d f11e d1bc 0a2c 82bd 573a 2c3d
000000a0: ead7 6d3d f733 81bb 8d43 dcbc ad57 0dbd
000000b0: 7fc0 a8bd 22ef 2c3d 8da3 ddba 45e8 e0bc
000000c0: b2ad a1bd 87bd 003e b937 6f3d 42da 193e
000000d0: a136 6ebd 43f6 ec3c ef4e 35bd d462 e13d
000000e0: dd46 113e f2f5 9bbd 8e0f d0bc 708c 9cbd
000000f0: 672e 2bbe 4bd3 103e a7c1 933b 28e5 3fbc
00000100: a571 5abc 0daf 953c 325e 22be 0702 153e
00000110: 19f0 b93d 8978 1bbd 8a43 b2bd dbdb 17bd
00000120: 5312 1bbd 4862 833d 3a55 99be 0125 383e
00000130: d61a 3dbd a000 ba3b f797 9e3c 1734 923c
00000140: 22ab 88bd 6c81 8f3d 9262 ba3c c627 aa3d
00000150: 893c 42bc 6836 013e 5ae3 343e 1048 0d3e
00000160: ee2d 45bd e0a4 f8bb c0cc f4bd dd30 4abd
00000170: 2c6a 20bd 5f8f ca3c 3217 e63c 84ff c83c
00000180: 3c86 06be 5e83 983e aca4 4f3e d6c6 c03c
00000190: 902b 003e f77a 1b3d fa1f 8abd 3d1a df3d
000001a0: cf0b 433d 2dc8 9dbc 0285 8a3c 19d6 13bd
000001b0: 0b61 903d 7c59 333d e9dd 053e 017e e73b
000001c0: 051d bf3d f498 65bd a41d 53bd 9d07 62be
000001d0: 4d9d 7bbc 5913 5d3e 4fc1 0a3e af59 653e
000001e0: 652a 3a3c 7a9e 41bd e5d2 30bc 420c 29be
000001f0: b93a 4f3d 2ad3 aa3d 9422 82bc 5724 07be
00000200: 3cd6 bfb8 909d 1bbd 5532 333d 28a9 a23d
00000210: 4d8b 963d 22f1 5dbd 5eb2 703d 2ad5 ad3d
00000220: 81ae 87bd 1d1d 2a3d 6690 67bd ebc3 dcbd
00000230: ab8d bb3d c030 09be f695 fe3d 7e28 33be
00000240: 8a2a 953d 10f6 03be 1a4b a03d 1e8a a3bd
00000250: c394 1abd 2115 8b3d 2ab0 b83d d859 a1bc
00000260: 2b5d 7b3d c5d4 cbbd 1574 733d b040 54bd
00000270: 0499 0a3c 32bf 083e 60b2 b53d 39ef 7b3d
00000280: 9379 58bc d562 ea3c d83e 453e 01e7 2b3d
00000290: 71b6 84bb eaae e3bd 3dfa 19bd f230 ac3c
000002a0: ed20 3e3d 62e3 173e 767b 98bd 2123 b2bd
000002b0: ef1d 933d ff32 5ebd e47e 303d 0f6e 3cbe
000002c0: fe8a 0d3e 978f a2bd 7b22 653d 3a57 a13d
000002d0: 306a 803d eae0 623d 4b79 cb3d 4723 8cbc
000002e0: 92c9 e13c 00ea 5a3d f7f6 283d 3d98 283e
000002f0: de6f 083d 01c5 763c eb55 a6bd bee5 26be
00000300: 95ab 8c3d a2fd cd3d 4eda 8f3b b167 35bd
00000310: 326f 62bd fe49 03bd 9913 443e 53bb f73a
00000320: 88f8 b13b b6bc 0ebc 166d 593e 1cd0 84bc
00000330: f32e 143e 482e bd3d a548 42bd 6fad 6b3d
00000340: 4f3f 5abc 318a cf3c adb6 1b3e c19e 8cbd
00000350: 7fb9 9ebd 7e25 b9ba a18b fc3d ad8d 283d
00000360: c06f 09bd ab0d aebd 898c 033d 0f03 8f3d
00000370: f335 dbbc 73f0 c4bc 6154 cf3d 36f0 dc3c
00000380: 14cd 2c3e 8ba3 63bd acdd 273d 4617 58bd
00000390: 250b 51bc 7537 06bd 0907 08bc e96d 643e
000003a0: 17db 31bb 33d6 86bd 11b1 88bd e46e e03c
000003b0: c18c 80be 8ee9 95bd 1cba d5bd 6cd6 053c
000003c0: 560e 2c3c f6a9 933d 7d92 203c d032 2d3d
000003d0: fb9c 82bd 054b 7b3e b69f 43bb f174 0f3e
000003e0: d55e 9a3d 1ab9 ba3c 9f1f 66bd 8a0b 11be
000003f0: f75a 3ebd 7e76 283d fd4d 033e a50e 80bb

fc2.bias f4 [64]
0.07251581 0.08497588 0.01737485 -0.05257418 0.13706426 -0.100887425 -0.08988859 0.021035971
0.05241363 0.0027722113 -0.13485953 -0.045751084 -0.070228964 0.007634165 0.08642886 0.009049213
-0.07066479 -0.054833904 -0.019081004 -0.008778288 0.008890901 0.028525913 -0.1013188 0.1552873
-0.015713485 -0.04548027 -0.061515838 -0.102262154 -0.019767981 0.10536298 0.13346857 0.16522963
0.024769932 0.016948592 -0.10128205 0.03735176 0.037684537 0.011592889 0.035016913 0.08979938
0.04590495 -0.10597789 0.07203753 -0.0034132174 0.014716753 -0.08769453 -0.08720579 -0.14872095
-0.07010725 0.015629504 -0.063001305 -0.08234071 0.031998094 -0.015912697 0.046839353 0.049410436
0.0312137 0.061673913 -0.06647932 0.082751095 -0.03821252 0.024942156 0.13671777 0.1595215
00000000: 2b83 943d d607 ae3d b455 8e3c 0658 57bd
00000010: 935a 0c3e 119e cebd 8217 b8bd a153 ac3c
00000020: adaf 563d fdad 353b 9e18 0abe 7d65 3bbd
00000030: 34d4 8fbd 0528 fa3b 9d01 b13d 2643 143c
00000040: b4b8 90bd 8499 60bd c44f 9cbc cfd2 0fbc
00000050: 24ab 113c 2daf e93c 3b80 cfbd a203 1f3e
00000060: 91b9 80bc 8549 3abd 08f8 7bbd d26e d1bd
00000070: 76f0 a1bc 8cc8 d73d fcab 083e f531 293e
00000080: 50ea ca3c c6d7 8a3c f76c cfbd 29fe 183d
00000090: 1a5b 1a3d 1af0 3d3c e56d 0f3d bde8 b73d
000000a0: d406 3c3d f00a d9bd 6a88 933d 49b0 5fbb
000000b0: 891e 713c 3199 b3bd f398 b2bd 4e4a 18be
000000c0: 6494 8fbd 7209 803c d406 81bd 3fa2 a8bd
000000d0: 6f10 033d 585b 82bc 9fda 3f3d 9962 4a3d
000000e0: e0b3 ff3c c99d 7c3d 4f26 88bd 6879 a93d
000000f0: bb84 1cbd 7e53 cc3c beff 0b3e 9b59 233e

fc3.weight f4 [10, 64]
0.02035922 -0.37021974 -0.019921303 -0.1602646 0.11008931 -0.0153354565 -0.039506897 -0.05430457
0.1231435 -0.07023149 0.0963731 0.22193149 -0.09831963 0.07386025 0.0014258317 0.076198995
-0.33415055 0.010413042 -0.18326208 -0.04621291 -0.20644134 -0.028186345 0.03285029 -0.36005512
0.082518704 -0.003420196 0.18573974 -0.0049274378 0.003127655 0.14253943 -0.14164895 0.018437942
0.035248626 0.20137803 -0.23620154 -0.18285285 0.11138583 0.09819774 0.16739705 -0.14031804
-0.013802036 -0.019452611 -0.018237488 0.13183197 0.20495449 -0.07951747 -0.21935725 0.027930046
0.11327978 -0.18756528 -0.17084512 0.08784257 -0.16688699 -0.035971746 0.068095624 -0.13161084
-0.06303284 -0.092617236 -0.059693906 0.029280169 0.085683174 -0.039823394 -0.19656628 -0.17471933
-0.12967765 -0.057700314 0.101416446 -0.03333344 0.046522245 -0.074468784 -0.04239106 0.18157509
0.054061133 0.053705323 0.06568602 0.080057465 0.027869591 0.11271235 -0.26457256 0.15622553
0.14035381 0.08506649 -0.10102966 -0.16294308 0.14365922 -0.33916086 0.16106997 0.040185247
-0.06886751 -0.29012507 -0.22938122 -0.010329017 -0.24666485 -0.18218733 0.07046075 -0.22113137
0.15117018 -0.26572564 -0.042319614 0.03786004 -0.12794453 -0.15526778 0.1676823 0.22274421
0.09107135 0.016630087 0.08665099 0.08858939 -0.15215118 -0.17696944 0.06669312 -0.09911561
0.0022731628 -0.07425666 0.15815644 -0.32348865 -0.21293947 -0.103964455 0.01166008 0.0004944946
0.06389344 -0.087433904 0.055963486 -0.24130125 -0.14906645 -0.28364012 -0.1787261 0.14222632
0.12717737 0.05224944 -0.041636605 0.10429082 -0.23969057 -0.100597024 -0.06268484 0.16974372
0.017443953 -0.014237303 -0.018532906 0.03344147 -0.10423279 -0.004469292 -0.12998517 -0.23818584
0.047586054 -0.09831429 -0.1798014 0.026544388 0.041743476 -0.035497025 0.03708494 0.19052687
0.009124414 -0.109152906 0.15042257 -0.13921599 -0.047295574 0.111251295 -0.26757878 -0.21163948
-0.015116736 -0.055747915 -0.0888483 -0.06012322 -0.0146849295 0.07178525 0.017402312 -0.19265051
-0.064607665 0.028668907 0.116193764 -0.3554484 -0.07009699 0.16470593 -0.104462095 -0.09337365
-0.040872987 0.09977742 -0.16479039 -0.05882138 -0.059476893 0.07730864 0.22337535 0.05815777
-0.05155226 0.20717987 -0.053033438 0.18672416 -0.07216441 0.17298111 -0.03131948 0.025998438
0.17037971 -0.07121224 -0.08706594 -0.13452622 -0.27096188 -0.12874989 -0.07666088 -0.26731974
0.0344872 -0.10808506 0.063202195 0.05863755 -0.053092174 -0.18706022 0.03754609 -0.1334138
0.0844646 -0.21761246 -0.0024689923 0.047389984 0.110332236 0.1269304 -0.040475026 0.23687392
0.039078068 0.17564623 -0.19200772 0.012590205 -0.20392832 -0.101339884 0.18773165 0.23391445
0.045534514 -0.13670994 0.14475778 -0.1638388 -0.09687844 0.07829554 0.039562035 -0.18851551
-0.23820588 -0.014746962 -0.045131736 -0.16621977 -0.22864808 -0.046314977 -0.08030129 -0.06755086
0.0706155 0.056839857 -0.07581768 -0.07544911 0.051219027 0.055943478 -0.047763586 0.028310075
-0.08170159 -0.20542799 -0.017969348 -0.18726939 -0.014869652 -0.18082476 -0.13275109 0.13584124
00000000: 61c8 a63c 718d bdbe 0032 a3bc 671c 24be
00000010: 8176 e13d 9141 7bbc fcd1 21bd 786e 5ebd
00000020: a932 fc3d 87d5 8fbd 435f c53d 0242 633e
00000030: cd5b c9bd 0b44 973d f9e2 ba3a 380e 9c3d
00000040: c815 abbe 779b 2a3c 0ea9 3bbe c049 3dbd
00000050: 5c65 53be 0de7 e6bc 078e 063d 2559 b8be
00000060: 91ff a83d 5e25 60bb 8f32 3e3e 5876 a1bb
00000070: 58f9 4c3b dbf5 113e 6c0c 11be 2b0b 973c
00000080: dd60 103d 0b36 4e3e d1de 71be c73d 3bbe
00000090: 411e e43d e61b c93d 226a 2b3e 88af 0fbe
000000a0: ef21 62bc 155b 9fbc c966 95bc f6fe 063e
000000b0: 97df 513e 0eda a2bd 309f 60be 8dcd e43c
000000c0: 3bff e73d 1d11 40be 06f2 2ebe cee6 b33d
000000d0: 6ce4 2abe 1c57 13bd b875 8b3d fec4 06be
000000e0: 5d17 81bd 1bae bdbd 9981 74bd f7dc ef3c
000000f0: a97a af3d db1d 23bd ac48 49be a0e9 32be
00000100: 38ca 04be 2a57 6cbd 6db3 cf3d a588 08bd
00000110: 1c8e 3e3d 1783 98bd 40a2 2dbd d2ee 393e
00000120: 356f 5d3d 1dfa 5b3d 6486 863d 2bf5 a33d
00000130: c54e e43c bcd5 e63d 0e76 87be 96f9 1f3e
00000140: e9b8 0f3e 5737 ae3d a3e8 cebd 8dda 26be
00000150: 671b 133e 7ea6 adbe 87ef 243e 4999 243d
00000160: 690a 8dbd 468b 94be e9e2 6abe 0a3b 29bc
00000170: b695 7cbe 518f 3abe ba4d 903d 4370 62be
00000180: 5bcc 1a3e 310d 88be 5557 2dbd 2113 1b3d
00000190: e403 03be 84fe 1ebe e9b4 2b3e 0f17 643e
000001a0: 9e83 ba3d d23b 883c 1376 b13d 5b6e b53d
000001b0: 85cd 1bbe 7a37 35be 6796 883d 20fd cabd
000001c0: 58f9 143b e013 98bd c3f3 213e 4ea0 a5be
000001d0: ce0c 5abe 51eb d4bd ec09 3f3c f9a0 013a
000001e0: 90da 823d 8c10 b3bd f839 653d ad17 77be
000001f0: e0a4 18be 4739 91be fa03 37be c7a3 113e
00000200: c93a 023e 8203 563d 258b 2abd 6d96 d53d
00000210: 7271 75be d005 cebd e960 80bd 4cd1 2d3e
00000220: 9fe6 8e3c 9443 69bc 52d2 97bc ecf9 083d
00000230: 0078 d5bd 2373 92bb d51a 05be fde6 73be
00000240: 98e9 423d 0159 c9bd dc1d 38be 9e73 d93c
00000250: 35fb 2a3d 5465 11bd 61e6 173d 7a19 433e
00000260: 917e 153c 8f8b dfbd 6008 1a3e a38e 0ebe
00000270: 01b9 41bd b8d7 e33d 1600 89be 05b8 58be
00000280: 30ac 77bc ed57 64bd 19f6 b5bd c443 76bd
00000290: 0f99 70bc 2504 933d 4b8f 8e3c 2d46 45be
000002a0: 0651 84bd 0edb ea3c fff6 ed3d 55fd b5be
000002b0: 038f 8fbd aca8 283e 39f0 d5bd af3a bfbd
000002c0: 6f6a 27bd 1b58 cc3d d0be 28be b0ee 70bd
000002d0: 0b9e 73bd fe53 9e3d 82bc 643e d836 6e3d
000002e0: 7628 53bd f626 543e 9739 59bd 9e34 3f3e
000002f0: efca 93bd f621 313e db48 00bd adfa d43c
00000300: 0578 2e3e b9d7 91bd a14f b2bd 3ec1 09be
00000310: 84bb 8abe 03d7 03be 6100 9dbd 22de 88be
00000320: 7342 0d3d b35b ddbd 2770 813d ed2d 703d
00000330: 2e77 59bd b78c 3fbe eec9 193d a19d 08be
00000340: c7fb ac3d cdd5 5ebe d1ce 21bb 001c 423d
00000350: def5 e13d 0bfa 013e 24c9 25bd 148f 723e
00000360: 5310 203d 9bdc 333e ac9d 44be 2647 4e3c
00000370: 96d2 50be 498b cfbd ba3c 403e 4587 6f3e
00000380: 6682 3a3d b1fd 0bbe 623b 143e 5cc5 27be
00000390: 3468 c6bd 6959 a03d cd0b 223d 360a 41be
000003a0: 3eec 73be 3e9d 71bc 0edc 38bd 8435 2abe
000003b0: b922 6abe c6b4 3dbd 0175 a4bd 1b58 8abd
000003c0: dc9e 903d e9d0 683d 4d46 9bbd 1085 9abd
000003d0: 0bcb 513d fd24 653d c0a3 43bd 88ea e73c
000003e0: 2a53 a7bd b75b 52be 7434 93bc 8cc3 3fbe
000003f0: d79f 73bc 202a 39be e7ef 07be f719 0b3e

fc3.bias f4 [10]
0.026961457 -0.09892923 -0.14622799 0.14239678 -0.022680536 0.014145025 -0.075276025 0.0011478941
0.003972261 0.036450464
00000000: 46de dc3c 689b cabd cabc 15be 76d0 113e
00000010: 88cc b9bc 89c0 673c 512a 9abd ef74 963a
00000020: be29 823b 154d 153d
